pretrained_models/gopt_librispeech/best_audio_model.pth (torch_old, 121411 bytes, 70 tensors)

module.pos_embed f4 [1, 55, 24]
-0.012902241 0.04356259 0.02619448 0.026263462 0.0136864 0.0023529958 0.030671945 0.023763044
0.020831248 -0.031466655 -0.013257048 -0.03321425 0.011211217 0.014218771 -0.017731098 0.02499684
-0.022704156 0.040684223 -0.033159897 0.04537415 -0.013783304 -0.03488159 0.009689986 0.027538558
-0.017359002 -0.029235896 -0.08648346 0.029161958 0.024769412 0.07830909 -0.0035192617 -0.019790387
0.01568472 -0.020437855 0.07150471 0.01334369 -0.0530969 0.011354265 0.022140505 0.021349875
0.0056386404 -0.019124934 0.031878475 -0.007364257 -0.019874254 0.04261839 0.0018006417 0.037958868
0.032384302 0.01461336 -0.008812166 0.0002042151 -0.017984487 0.007960024 -0.02908577 -0.022267641
-0.023371784 -0.028279645 0.00095837185 -0.005145982 0.015676094 -0.10876037 -0.050190546 -0.04825265
-0.03438436 0.03630709 -0.011916333 0.032759894 0.0061998777 -0.0037544614 0.005569111 0.034021303
-0.043298498 0.004410849 0.014326458 -0.030178199 -0.003450288 -0.004826758 -0.015223454 -0.026084023
-0.010942267 -0.0071407985 -0.012295663 0.025207464 -0.0006188609 0.039871544 -0.052828074 0.024206454
0.0021594611 -0.0153208645 -0.0603113 0.048185673 0.014432089 -0.07794044 0.001861379 0.011796522
0.034521535 0.007360719 -0.043123066 -0.002171095 -0.038989894 0.03160123 -0.030434197 -0.029084068
0.006704424 0.051221028 -0.025820877 0.025372112 0.007096798 0.028986938 -0.03147667 0.012411264
-0.03566222 -0.047506355 -0.036619194 -0.10448904 -0.014495994 -0.0074903728 -0.03720829 0.00047239393
-0.13964018 0.005288207 0.04820835 0.09025481 -0.114774816 -0.10912633 0.20896243 0.08070887
-0.078340515 0.08821075 0.012377815 -0.20235072 0.07651842 -0.036886916 0.04153231 0.025805373
0.14019494 0.061670873 0.0821215 -0.192803 -0.0807011 0.055234265 0.06788793 0.15862204
-0.10815629 -0.014778447 0.025147038 0.035010953 -0.047939647 -0.06375232 0.06843304 0.037838474
-0.019818086 0.020574352 -0.019400055 -0.10240555 0.059955187 -0.014356855 0.04475861 -0.048131328
0.02823148 0.07410706 -0.023805955 -0.090876006 -0.013805645 0.028975906 0.08422001 0.03892715
0.0058133905 -0.011485772 0.052044638 0.02331684 -0.036277343 -0.09520814 0.040683683 -0.017528307
-0.020072546 -0.0119395275 0.004663407 -0.05178174 0.014082254 0.003670481 0.046354253 -0.017868552
0.03284543 0.03347426 0.04043771 -0.035836652 0.016099947 0.043829627 0.061686505 -0.017439544
0.03091658 -0.025347466 -0.033931423 0.002561901 -0.035196032 -0.023611732 -0.01297424 0.05310254
-0.0025835691 0.02092343 0.017236993 -0.08429004 -0.0010036613 -0.0048413705 0.04150134 0.047795802
0.04469202 0.029671 -0.007151203 -0.06147279 0.0028367094 0.038602185 0.032979622 0.07495366
0.11369765 0.017443513 0.015448538 0.061506268 -0.123598084 -0.075504355 -0.022124069 0.10781815
-0.06398544 0.02817652 0.03402055 -0.04284407 0.11462574 -0.053594347 0.069320284 0.063650094
0.11969132 0.021142852 0.064863436 -0.13369274 0.031220378 0.07823686 -0.024078453 0.023788486
0.021874124 -0.03399912 -0.015035727 -0.000791298 -0.003111197 -0.017934456 -0.021001669 0.07119782
-0.025584763 -0.071009204 -0.01750653 -0.027230492 -0.035440758 -0.06890492 0.039658558 0.0032480354
00000000: ec63 53bc b06e 323d ce95 d63c 7926 d73c
00000010: ec3c 603c b834 1a3b bb43 fb3c b7aa c23c
00000020: 4ba6 aa3c 2ee3 00bd 1734 59bc aa0b 08bd
00000030: 41af 373c d9f5 683c cf40 91bc 2cc6 cc3c
00000040: 11fe b9bc 80a4 263d acd2 07bd 3fda 393d
00000050: 5ed3 61bc 00e0 0ebd bfc2 1e3c 8b98 e13c
00000060: 7734 8ebc 1e80 efbc 3e1e b1bd 0fe5 ee3c
00000070: 39e9 ca3c 8460 a03d 6aa3 66bb 731f a2bc
00000080: 3e7d 803c 4a6d a7bc 1071 923d 7e9f 5a3c
00000090: 237c 59bd 3d07 3a3c 0160 b53c efe5 ae3c
000000a0: 58c4 b83b e5ab 9cbc 0193 023d dd4f f1bb
000000b0: 55cf a2bc 9f90 2e3d 8203 ec3a c27a 1b3d
000000c0: 67a5 043d e06c 6f3c e760 10bc 9322 5639
000000d0: 3454 93bc c36a 023c 4845 eebc a16a b6bc
000000e0: 2f76 bfbc b7aa e7bc 3f3b 7b3a a09f a8bb
000000f0: 276b 803c c2bd debd 9a94 4dbd 92a4 45bd
00000100: 9dd6 0cbd beb6 143d b93c 43bc 3d2f 063d
00000110: 5828 cb3b 690d 76bb 177d b63b ec59 0b3d
00000120: c459 31bd e288 903b 85b9 6a3c 4538 f7bc
00000130: 3a1e 62bb c829 9ebb cb6b 79bc 29ae d5bc
00000140: 3247 33bc 5cfd e9bb c073 49bc e27f ce3c
00000150: 0d3b 22ba 5850 233d 4062 58bd 9d4c c63c
00000160: bf85 0d3b 5d04 7bbc fb08 77bd 575e 453d
00000170: 9274 6c3c 3d9f 9fbd 84f9 f33a 3346 413c
00000180: 7466 0d3d 3032 f13b d0a1 30bd ee48 0ebb
00000190: deb3 1fbd 4b70 013d 2351 f9bc b641 eebc
000001a0: c9b0 db3b 24cd 513d 4e86 d3bc 2dd9 cf3c
000001b0: 428c e83b 0476 ed3c aeed 00bd 9d58 4b3c
000001c0: 8c12 12bd 0696 42bd 02fe 15bd 5afe d5bd
000001d0: 9b80 6dbc cd71 f5bb b867 18bd a4ab f739
000001e0: d6fd 0ebe b248 ad3b 1e76 453d 84d7 b83d
000001f0: 0f0f ebbd a07d dfbd 3ffa 553e b14a a53d
00000200: fe70 a0bd d6a7 b43d 52cc 4a3c 0735 4fbe
00000210: b0b5 9c3d bc16 17bd c91d 2a3d ca65 d33c
00000220: 438f 0f3e 999a 7c3d 512f a83d 266e 45be
00000230: 9e46 a5bd 533d 623d d408 8b3d d16d 223e
00000240: 0c81 ddbd 4d21 72bc 2901 ce3c a567 0f3d
00000250: 5d5c 44bd 9490 82bd 9f26 8c3d 84fc 1a3d
00000260: 8a59 a2bc 8b8b a83c ddec 9ebc 00ba d1bd
00000270: 9293 753d 0439 6bbc ce54 373d 5b25 45bd
00000280: b445 e73c 71c5 973d b504 c3bc 331d babd
00000290: 1231 62bc e15e ed3c 8a7b ac3d 1372 1f3d
000002a0: 417e be3b d22e 3cbc c22c 553d f502 bf3c
000002b0: 8d97 14bd 7cfc c2bd efa3 263d 8697 8fbc
000002c0: 2e6f a4bc 029e 43bc 7ecf 983b 1719 54bd
000002d0: 41b9 663c 748c 703b f5dd 3d3d 1261 92bc
000002e0: ee88 063d 4e1c 093d 03a2 253d 74c9 12bd
000002f0: 09e4 833c b286 333d fdaa 7c3d 60dd 8ebc
00000300: c544 fd3c 7da5 cfbc adfb 0abd 91e5 273b
00000310: b729 10bd 646d c1bc e891 54bc 0d82 593d
00000320: 1951 29bb 9d67 ab3c 9834 8d3c 42a0 acbd
00000330: 498d 83ba 5ca4 9ebb 4ffd 293d 88c5 433d
00000340: fb0e 373d 9910 f33c a454 eabb e4ca 7bbd
00000350: 16e8 393b 531d 1e3d a415 073d 4e81 993d
00000360: 50da e83d b3e5 8e3c dd1b 7d3c ffed 7b3d
00000370: fe20 fdbd 07a2 9abd 893d b5bc c3cf dc3d
00000380: cc0a 83bd 72d2 e63c 2259 0b3d 437d 2fbd
00000390: e6c0 ea3d bf85 5bbd cbf7 8d3d fb5a 823d
000003a0: b920 f53d c633 ad3c 1fd7 843d c0e6 08be
000003b0: e1c1 ff3c a63a a03d 2d40 c5bc 12e0 c23c
000003c0: 5d31 b33c a942 0bbd 6958 76bc 1c6f 4fba
000003d0: 39e5 4bbb 48eb 92bc b10b acbc 2ad0 913d
000003e0: 2397 d1bc 466d 91bd db69 8fbc 7b12 dfbc
000003f0: 542a 11bd 061e 8dbd 0371 223d fedc 543b

module.cls_token1 f4 [1, 1, 24]
0.0071644033 0.021884218 0.027946638 -0.02425747 -0.012660667 -0.008047731 -0.014723505 0.018766286
-0.024765542 -0.050690487 -0.048537135 0.0029676622 0.012231241 0.023508873 -0.020632586 0.061844464
-0.0042527453 -0.024848832 -0.01191623 0.014366372 -0.001053666 -0.018498221 0.0050378377 0.01576073
00000000: 5fc3 ea3b 8846 b33c 59f0 e43c 9ab7 c6bc
00000010: b06e 4fbc a1da 03bc db3a 71bc c1bb 993c
00000020: 1be1 cabc d4a0 4fbd e0ce 46bd 1c7d 423b
00000030: 8b65 483c ae95 c03c ab05 a9bc 9f50 7d3d
00000040: 9d5a 8bbb c78f cbbc 4b3c 43bc ee60 6b3c
00000050: 2a1b 8aba 9589 97bc 7214 a53b a51c 813c

module.cls_token2 f4 [1, 1, 24]
-0.0074326918 -0.014774259 -0.029725512 -0.012282991 0.0534831 0.043435667 -0.034835625 0.001190846
0.05575299 -0.0030141978 0.025134457 0.054128394 -0.036513057 0.0091058975 -0.03724957 0.022521913
0.02223918 -0.06537076 0.0049020243 -0.020541478 -0.033155173 0.050915517 -0.035185963 0.023892088
00000000: f08d f3bb bc0f 72bc eb82 f3bc 993e 49bc
00000010: 1811 5b3d 99e9 313d cdaf 0ebd 2916 9c3a
00000020: 3f5d 643d d989 45bb c7e6 cd3c bcb5 5d3d
00000030: b78e 15bd e730 153c 0193 18bd e07f b83c
00000040: f12e b63c 1be1 85bd 29a1 a03b 9a46 a8bc
00000050: b8cd 07bd ca8c 503d 281f 10bd 57b9 c33c

module.cls_token3 f4 [1, 1, 24]
-0.0033741405 0.0162217 0.00531166 0.042109545 0.001264952 0.007662635 6.756931e-05 -0.03552001
0.0045588156 0.00525656 0.0020209684 -0.016288256 0.02308483 -0.09875336 -0.0086577935 0.005115939
0.010977237 0.03099897 -0.02934565 0.056599785 -0.0042034024 -0.014230963 -0.040037237 0.054275095
00000000: af20 5dbb 5fe3 843c 6f0d ae3b 0f7b 2c3d
00000010: bfcc a53a d716 fb3b ffb3 8d38 6e7d 11bd
00000020: 1e62 953b 393f ac3b 3972 043b f36e 85bc
00000030: 661c bd3c 343f cabd 6bd9 0dbc 9ba3 a73b
00000040: ded9 333c 8df1 fd3c 4a66 f0bc 2dd5 673d
00000050: b2bc 89bb fc28 69bc 16fe 23bd 904f 5e3d

module.cls_token4 f4 [1, 1, 24]
-0.04925308 0.019174878 0.0018527199 -0.01701504 0.019589733 0.017524801 0.008207611 -0.033047386
-0.010728051 0.015944561 0.006177877 0.06044599 0.011895383 -0.03881999 -0.015446083 0.054330833
-0.008364308 0.020314578 -0.053732898 -0.0029823857 -0.0031738596 -0.046178225 0.017149402 0.031759202
00000000: 99bd 49bd a214 9d3c f7d6 f23a 2063 8bbc
00000010: a67a a03c 2c90 8f3c 3779 063c b25c 07bd
00000020: b5c4 2fbc 2b9e 823c ca6f ca3b 3796 773d
00000030: dae4 423c b601 1fbd 9111 7dbc 028a 5e3d
00000040: 730a 09bc c26a a63c 0717 5cbd 2174 43bb
00000050: 8700 50bb 6125 3dbd e77c 8c3c f015 023d

module.cls_token5 f4 [1, 1, 24]
0.050536893 -0.021396954 -0.00015186571 0.049065202 -0.041708745 -0.015181369 0.003155547 -0.057167325
-0.03333371 0.042084053 0.003496845 0.0268508 0.0028644504 0.011072537 0.007338097 0.04159143
-0.015136531 -0.037474703 -0.06482343 -0.06675404 0.03793417 -0.028485384 -0.051022254 0.02062152
00000000: c6ff 4e3d aa48 afbc 243e 1fb9 98f8 483d
00000010: cad6 2abd 47bb 78bc 4bcd 4e3b 4928 6abd
00000020: ee88 08bd 5460 2c3d 532b 653b 35f6 db3c
00000030: 81b9 3b3b 9669 353c 6b74 f03b c65b 2a3d
00000040: 36ff 77bc 137f 19bd 25c2 84bd 58b6 88bd
00000050: dc60 1b3d 2e5a e9bc b6fc 50bd 76ee a83c

module.blocks.0.norm1.weight f4 [24]
0.9502348 0.9670407 0.97217155 0.9795625 0.958163 1.0064147 0.9708121 0.9991471
0.9831868 1.0025374 0.99897707 1.0432241 0.96564454 0.9869557 0.9451514 1.0283799
0.9785255 0.98296255 1.0080245 1.0510553 1.0333407 0.9852554 1.0084146 0.9938701
00000000: 9642 733f fb8f 773f 3ce0 783f 9cc4 7a3f
00000010: 2c4a 753f 32d2 803f 2487 783f 1bc8 7f3f
00000020: 21b2 7b3f 2553 803f f6bc 7f3f 5e88 853f
00000030: 7b34 773f 21a9 7c3f 71f5 713f f4a1 833f
00000040: a680 7a3f 6fa3 7b3f f206 813f fb88 863f
00000050: 8244 843f b339 7c3f bb13 813f 456e 7e3f

module.blocks.0.norm1.bias f4 [24]
-0.0537575 0.011494748 0.0026182919 -0.011202189 0.028693244 0.005591527 -0.017765211 -0.013309248
-0.002471544 -0.008533815 0.0070703495 0.0053916536 -0.009103347 -0.011885142 -0.018803425 0.0102245845
-0.017195335 -0.02423314 -0.0009399672 0.016049987 -0.0022962785 -0.016221153 -0.010721766 0.015854418
00000000: d330 5cbd 7854 3c3c a697 2b3b 6389 37bc
00000010: 180e eb3c 2139 b73b 5988 91bc 080f 5abc
00000020: a1f9 21bb 6ad1 0bbc 64ae e73b 78ac b03b
00000030: 3426 15bc e6b9 42bc a409 9abc 0485 273c
00000040: 3bdd 8cbc 9484 c6bc 2268 76ba 437b 833c
00000050: 297d 16bb 39e2 84bc 59aa 2fbc 20e1 813c

module.blocks.0.attn.qkv.weight f4 [72, 24]
0.05561819 -0.020875888 -0.040402956 0.010481082 -0.19760217 0.036779694 -0.15618055 0.002541467
-0.014647245 -0.14754277 -0.101435535 0.16390748 0.17026858 -0.036821924 -0.10824766 -0.033678174
-0.010375921 0.11135799 0.14041731 0.076444864 0.09881504 0.13454333 -0.23833388 0.0955145
-0.15936705 0.019899298 0.12798588 0.18201356 -0.008642942 -0.08213924 0.025399229 -0.073059045
0.13359626 0.12945393 0.18661767 -0.0052497094 -0.053086936 -0.061730962 0.14752783 0.109543696
0.0896904 -0.1678123 0.014823295 -0.22074054 -0.076420285 -0.07269403 0.057293117 0.03991848
-0.028203301 -0.086526036 0.11656196 0.0907736 0.074087374 0.15369734 -0.10445115 -0.15144363
-0.05906206 0.047924396 -0.19966221 -0.054129694 -0.16059025 -0.07952775 -0.05211931 0.017813208
-0.11472191 0.017609786 0.012776108 0.050740473 0.110820726 -0.10177684 -0.06403983 0.14874813
-0.02922123 0.21324593 -0.0765177 -0.09190014 -0.14405946 -0.24776618 0.20868132 0.17088567
0.033504054 0.18600896 -0.0905944 -0.15362376 0.07213162 -0.06956951 -0.08369641 0.025875328
0.07965909 -0.116744444 -0.01522029 0.15486735 0.21032764 -0.017964518 0.17778592 -0.008051204
-0.04987622 0.089863114 0.0769739 -0.19898452 -0.060449965 -0.12171433 -0.049122166 -0.19796774
0.025772545 0.10655805 0.108682044 -0.12729639 0.22728384 0.08141713 0.18250601 0.09712765
0.054554395 0.022208085 0.09160769 -0.0058496795 0.068366654 -0.11980703 -0.01756005 0.2072979
0.14223695 -0.14896286 0.15748608 0.15566438 -0.16864635 -0.007105131 0.08675566 0.044261575
-0.13340515 0.17938274 0.03347204 -0.15512702 -0.039847672 0.11682545 -0.14694063 -0.15621834
-0.16223297 -0.047147766 -0.13385104 0.04569919 -0.043197036 0.13273758 0.049046762 0.006265908
0.10340469 0.07263384 -0.01842994 -0.17670509 0.04391462 0.2334409 -0.0031906595 -0.03807245
0.0017880049 -0.08211991 0.19029805 0.16539231 0.205684 -0.048776835 -0.14355367 -0.069712214
0.10191101 0.079912335 -0.21030138 -0.002120707 -0.17174229 0.11443949 0.07409621 -0.11424381
-0.08962326 -0.14942518 0.0069892816 -0.18093595 0.16506317 0.08026289 0.08276674 -0.23159783
0.24281813 0.11402445 0.12195586 0.1293395 -0.18414903 -0.109703705 -0.20595524 -0.11454229
-0.08094604 -0.17742956 0.0045382204 0.07472587 -0.15808196 0.15512374 -0.18970548 -0.11661647
0.0768124 0.20123877 0.035778865 0.17703165 0.082709014 -0.1945215 0.18360382 0.2867826
-0.18220466 -0.08149938 0.08944627 0.05287798 -0.0735525 0.14685474 0.08520784 -0.11461257
-0.10705885 0.18738152 0.20343547 -0.16098778 0.1503955 -0.017021991 0.107549794 -0.22070469
0.039324857 0.032705065 -0.03515782 -0.0002213716 0.22046918 0.09281702 0.13767058 -0.0643873
0.17272682 0.049367085 -0.08236212 -0.15412696 0.1307929 -0.060689304 -0.1540014 -0.11231714
-0.0109654525 0.16330454 0.17602332 0.13900316 -0.091985025 -0.041966245 -0.009036665 0.14116795
0.17128815 -0.05533727 0.092334986 0.17921405 0.13087098 -0.07546885 -0.15283976 -0.16039571
-0.093580395 -0.009510146 -0.10539793 -0.06664999 -0.1941296 0.13157256 0.039523985 0.15552138
00000000: e6cf 633d e903 abbc 927d 25bd d8b8 2b3c
00000010: 3958 4abe 4ea6 163d cbed 1fbe be8e 263b
00000020: 00fb 6fbc 7415 17be 6fbd cfbd 5dd7 273e
00000030: e35a 2e3e 96d2 16bd f3b0 ddbd 20f2 09bd
00000040: c4ff 29bc a80f e43d 8ec9 0f3e 208f 9c3d
00000050: 8a5f ca3d bac5 093e cc0d 74be 1b9d c33d
00000060: 1e31 23be da03 a33c bb0e 033e c361 3a3e
00000070: 209b 0dbc 9e38 a8bd 0b12 d03c fb9f 95bd
00000080: 75cd 083e 928f 043e b418 3f3e c105 acbb
00000090: b071 59bd 9bd9 7cbd 8911 173e 7258 e03d
000000a0: 9aaf b73d fdd6 2bbe 68dd 723c cf09 62be
000000b0: 3d82 9cbd 9ce0 94bd 30ac 6a3d 8f81 233d
000000c0: 9c0a e7bc 9034 b1bd 09b8 ee3d 82e7 b93d
000000d0: 1fbb 973d d662 1d3e 7cea d5bd 0a14 1bbe
000000e0: 0feb 71bd 5f4c 443d 4074 4cbe 19b7 5dbd
000000f0: c571 24be 72df a2bd 0f7b 55bd 01ed 913c
00000100: 52f3 eabd 6642 903c e252 513c 3ed5 4f3d
00000110: faf5 e23d 6070 d0bd 5027 83bd 6e51 183e
00000120: 5c61 efbc 245d 5a3e 50b5 9cbd 2436 bcbd
00000130: 5384 13be 6bb6 7dbe 8eb0 553e a7fc 2e3e
00000140: 8c3b 093d 2279 3e3e 8f89 b9bd 8c4f 1dbe
00000150: beb9 933d 767a 8ebd 0669 abbd 7ff8 d33c
00000160: 4e24 a33d b617 efbd 865e 79bc 8c95 1e3e
00000170: 2160 573e 532a 93bc 830d 363e 32e9 03bc
00000180: 024b 4cbd 270a b83d 7ea4 9d3d 99c2 4bbe
00000190: 629a 77bd 5d45 f9bd 5334 49bd 0eb8 4abe
000001a0: f220 d33c 1b3b da3d b194 de3d fc59 02be
000001b0: 18bd 683e 06be a63d dbe2 3a3e ddea c63d
000001c0: 6e74 5f3d bbed b53c d09c bb3d abae bfbb
000001d0: d103 8c3d 635d f5bd 18da 8fbc e745 543e
000001e0: 90a6 113e b889 18be 0844 213e 7c66 1f3e
000001f0: a1b1 2cbe 29d2 e8bb f4ac b13d a04b 353d
00000200: 5c9b 08be 1cb0 373e fa19 093d 9ed9 1ebe
00000210: 5037 23bd 2e42 ef3d 9b77 16be b3f7 1fbe
00000220: 6620 26be 041e 41bd 3f10 09be 132f 3b3d
00000230: 60ef 30bd 5cec 073e 42e5 483d 3f52 cd3b
00000240: d7c5 d33d 0dc1 943d 63fa 96bc 2ef2 34be
00000250: d1df 333d 220b 6f3e 621a 51bb dbf1 1bbd
00000260: 7d5b ea3a 7c2e a8bd 7edd 423e 9a5c 293e
00000270: d49e 523e 38ca 47bd bcff 12be 47c5 8ebd
00000280: b8b6 d03d 14a9 a33d 3f59 57be 8ffb 0abb
00000290: 36dd 2fbe 405f ea3d c1bf 973d a9f8 e9bd
000002a0: 668c b7bd ea02 19be 5806 e53b 4647 39be
000002b0: 5206 293e df60 a43d 9c81 a93d fb27 6dbe
000002c0: 51a5 783e a785 e93d fec3 f93d 9371 043e
000002d0: 9091 3cbe 56ac e0bd eee5 52be 2695 eabd
000002e0: 0ac7 a5bd 18b0 35be 5ab5 943b e009 993d
000002f0: 3de0 21be c2d8 1e3e 2742 42be 9ed4 eebd
00000300: d24f 9d3d 8911 4e3e dc8c 123d c947 353e
00000310: 5863 a93d a530 47be a402 3c3e 2bd5 923e
00000320: dc93 3abe 26e9 a6bd 9b2f b73d 9596 583d
00000330: b1a2 96bd 1761 163e 7381 ae3d ffb9 eabd
00000340: ac41 dbbd f1e0 3f3e 6351 503e fbd9 24be
00000350: 4701 1a3e b471 8bbc 1143 dc3d 6900 62be
00000360: 1a13 213d bff5 053d a501 10bd fd1f 68b9
00000370: acc2 613e da16 be3d 84f9 0c3e 7ddd 83bd
00000380: 4ddf 303e 2435 4a3d 79ad a8bd 75d3 1dbe
00000390: 93ee 053e 5995 78bd 8bb2 1dbe 8706 e6bd
000003a0: 71a8 33bc 4e39 273e 753f 343e d856 0e3e
000003b0: a562 bcbd cce4 2bbd 850e 14bc 558e 103e
000003c0: 2966 2f3e 55a9 62bd 201a bd3d e383 373e
000003d0: 0b03 063e 6a8f 9abd 0782 1cbe c63e 24be
000003e0: 14a7 bfbd 72d0 1bbc dfda d7bd ca7f 88bd
000003f0: e9c9 46be f5ba 063e e7e3 213d ff40 1f3e

module.blocks.0.attn.proj.weight f4 [24, 24]
0.049061935 0.05977659 0.08257576 -0.16348854 0.13823897 0.10882245 0.14979279 0.052440602
-0.050468724 -0.19776545 0.120640025 0.19975182 -0.09217361 0.042547494 0.06955878 0.12065405
-0.11686138 0.20301111 -0.09876789 0.044135977 0.13502309 0.014030813 -0.024532644 -0.13704698
-0.17404455 0.022994746 -0.0949462 -0.0903694 0.011993304 -0.1150662 -0.14418438 -0.13784862
0.123095624 -0.018430945 0.0697848 -0.13545546 0.07680866 -0.12883322 -0.11114623 -0.11410107
0.034423187 -0.021860234 0.102595985 0.1218004 0.018169 -0.11982495 -0.17300135 0.036719102
0.05067491 -0.041833937 0.051420074 -0.14517172 -0.16938765 0.06483132 -0.04132676 0.031815078
0.16050488 0.18423603 0.18522565 0.05381 -0.12254526 -0.10326141 0.19325863 0.17381237
0.08501764 -0.14272815 0.020110428 -0.19902985 0.06370891 -0.15481763 -0.1282373 0.13876382
0.09301276 -0.0795509 0.1357599 0.13842002 -0.039644 -0.1428035 -0.11845557 0.18745823
-0.21743706 -0.10970439 -0.0111177 0.09157746 0.11623306 -0.12872896 -0.04561836 -0.11915356
0.11385074 0.08510414 0.1621705 -0.15362418 -0.12920745 0.14061514 -0.068445556 -0.08800085
0.14428842 -0.20166823 -0.13144735 -0.038052473 -0.04433369 -0.16055486 -0.15570468 -0.20227537
-0.040979903 0.18577226 0.12746592 -0.18696815 -0.04325924 -0.19991405 0.07323477 0.018640427
-0.015860183 0.0063687516 0.07996034 0.081599206 -0.0048823617 -0.097800836 -0.15764835 -0.073719025
0.03334453 -0.07327547 0.16783506 -0.031848084 0.17688902 -0.11689535 0.18169601 0.18772115
-0.1819735 0.19215325 0.14069234 0.077587664 0.035989247 -0.026736973 -0.10030263 0.16074295
0.09414162 0.088767454 -0.16860904 -0.032990128 -0.1343836 0.0667955 -0.13754107 0.16223109
-0.1725332 -0.06395771 0.15127358 0.010197964 -0.03538284 0.008652581 -0.003966007 0.057382576
-0.06630044 -0.013162992 -0.18966337 -0.114087105 -0.18159445 0.16899619 0.16302454 -0.13714741
0.14816344 0.12741078 0.10721856 -0.050988283 0.008976963 -0.12186875 0.07023952 -0.20696755
-0.050051264 0.17686613 0.14357954 0.036903843 0.08712484 -0.0790119 -0.15872654 -0.05569974
-0.019714713 -0.14586666 0.03339376 0.17684545 0.10783949 -0.15929693 0.20700671 0.13354382
0.036886036 0.12840751 0.13444167 0.14886592 0.2006604 -0.090914555 0.18046816 -0.12635209
-0.17084244 0.12967154 -0.18638968 -0.17983262 0.12874523 0.14194395 -0.1595799 0.18452731
0.023239756 0.099077195 0.09571693 -0.14665116 -0.15167499 -0.07333547 0.025985273 -0.039210074
0.18719438 -0.14052708 -0.019548684 -0.15363032 0.0634287 0.046741523 0.17638758 0.067011006
-0.034974188 -0.15951897 -0.03414627 0.010267103 0.102112345 0.16000862 0.010914173 0.08852155
0.094902754 -0.15688555 0.17718811 0.054366264 -0.03509999 0.1328427 -0.1409624 -0.12276686
0.14704579 -0.04424977 -0.06929958 -0.13283014 -0.036383994 0.11736379 -0.17262188 0.043660752
0.13360114 -0.050279777 0.2137767 -0.17190592 0.13879047 -0.12489408 -0.07840481 -0.13864928
-0.019079238 -0.029775409 -0.08783531 -0.1901036 -0.01614637 0.089377455 0.06250751 -0.08353953
00000000: 2bf5 483d 4cd8 743d 7b1d a93d 8a69 27be
00000010: 848e 0d3e 4ede de3d 4863 193e f5cb 563d
00000020: 4bb8 4ebd 0783 4abe 1e12 f73d be8b 4c3e
00000030: 85c5 bcbd 4846 2e3d d574 8e3d 7819 f73d
00000040: 0555 efbd 25e2 4f3e d246 cabd edc7 343d
00000050: 7e43 0a3e 7fe1 653c aff8 c8bc 0b56 0cbe
00000060: bc38 32be 7a5f bc3c 2773 c2bd 9813 b9bd
00000070: 907f 443c d4a7 ebbd 12a5 13be 3028 0dbe
00000080: 8f19 fc3d 7efc 96bc 55eb 8e3d d6b4 0abe
00000090: dc4d 9d3d dbec 03be a2a0 e3bd d2ad e9bd
000000a0: 54ff 0c3d 3c14 b3bc d81d d23d 7d72 f93d
000000b0: 28d7 943c c966 f5bd 4427 31be c566 163d
000000c0: 7f90 4f3d 105a 2bbd db9d 523d e5a7 14be
000000d0: f573 2dbe 48c6 843d 4046 29bd 8750 023d
000000e0: 645b 243e 5fa8 3c3e cbab 3d3e e067 5c3d
000000f0: 02f9 fabd b87a d3bd 97e5 453e dffb 313e
00000100: ba1d ae3d 5427 12be a0be a43c 7bce 4bbe
00000110: d179 823d 8388 1ebe a450 03be 1a18 0e3e
00000120: 797d be3d 95eb a2bd a504 0b3e fabd 0d3e
00000130: bf61 22bd 153b 12be d598 f2bd 0df5 3f3e
00000140: d2a7 5ebe b2ac e0bd 0327 36bc f78c bb3d
00000150: 990b ee3d 86d1 03be 51da 3abd c806 f4bd
00000160: 942a e93d 144b ae3d 0610 263e a84f 1dbe
00000170: f54e 04be 6afd 0f3e 2f2d 8cbd ca39 b4bd
00000180: 58c0 133e 1e82 4ebe 229a 06be e9dc 1bbd
00000190: 3e97 35bd 7e68 24be 0c71 1fbe 4621 4fbe
000001a0: 8bda 27bd 153b 3e3e 6d86 023e 9474 3fbe
000001b0: 9a30 31bd 45b6 4cbe 1cfc 953d cfb3 983c
000001c0: 37ed 81bc f6b0 d03b 3fc2 a33d 7c1d a73d
000001d0: 38fc 9fbb ce4b c8bd 926e 21be 00fa 96bd
000001e0: 4694 083d 7311 96bd f4dc 2b3e 2373 02bd
000001f0: 6522 353e d466 efbd 850e 3a3e f939 403e
00000200: 4357 3abe d2c3 443e a711 103e 48e6 9e3d
00000210: 7669 133d 7f07 dbbc 776b cdbd cd99 243e
00000220: 52cd c03d b6cb b53d d9a7 2cbe a820 07bd
00000230: db9b 09be 14cc 883d 91d7 0cbe e81f 263e
00000240: 8bac 30be 43fc 82bd 76e7 1a3e 5c15 273c
00000250: 99ed 10bd 8ec3 0d3c 47f5 81bb fe09 6b3d
00000260: 86c8 87bd 97a9 57bc 1d37 42be 80a6 e9bd
00000270: e5f3 39be 560d 2d3e e8ef 263e 5f70 0cbe
00000280: 28b8 173e f977 023e 6895 db3d 17d9 50bd
00000290: 1d14 133c 5396 f9bd bdd9 8f3d 4def 53be
000002a0: 8e02 4dbd 651c 353e 8406 133e 7c28 173d
000002b0: 826e b23d fed0 a1bd 3689 22be 6925 64bd
000002c0: c080 a1bc 125e 15be e5c7 083d f916 353e
000002d0: f3da dc3d bc1e 23be 91f9 533e b6bf 083e
000002e0: d015 173d 427d 033e 14ab 093e 4f70 183e
000002f0: eb79 4d3e 6931 babd a5cc 383e 7162 01be
00000300: 52f1 2ebe 9ec8 043e f0dc 3ebe 0b26 38be
00000310: cad5 033e c159 113e ea68 23be baf4 3c3e
00000320: 4d61 be3c fce8 ca3d 3d07 c43d b92b 16be
00000330: b050 1bbe e830 96bd 11df d43c be9a 20bd
00000340: e2af 3f3e 55e6 0fbe 9024 a0bc 4451 1dbe
00000350: e8e6 813d 0a74 3f3d f29e 343e 113d 893d
00000360: 1841 0fbd f158 23be f6dc 0bbd 5a37 283c
00000370: 4720 d13d 4dd9 233e 5cd1 323c c94a b53d
00000380: 605c c23d 9ba6 20be cd70 353e 29af 5e3d
00000390: 02c5 0fbd eb07 083e 7358 10be 316d fbbd
000003a0: 2c93 163e 3f3f 35bd f0ec 8dbd a004 08be
000003b0: 6207 15bd 6d5c f03d cac3 30be 9ed5 323d
000003c0: bdce 083e 2bf2 4dbd 47e8 5a3e 1b08 30be
000003d0: 171f 0e3e 78c8 ffbd b392 a0bd 14fa 0dbe
000003e0: 104c 9cbc 8feb f3bc 00e3 b3bd 85aa 42be
000003f0: 6445 84bc 870b b73d f003 803d c616 abbd

module.blocks.0.attn.proj.bias f4 [24]
0.12268649 0.17635435 -0.0003542363 0.14038537 -0.053283904 0.08510846 0.15941556 0.16052093
-0.07098419 -0.02816614 -0.09862347 0.044578075 -0.17996362 0.010931817 -0.00788632 -0.1745393
0.12014934 0.07498833 -0.18360662 0.06927145 -0.17256121 0.16701591 -0.06959609 0.050153937
00000000: 0e43 fb3d 3c96 343e cbb8 b9b9 2fc1 0f3e
00000010: 3940 5abd 584d ae3d d53d 233e 995f 243e
00000020: 2960 91bd adbc e6bc 1afb c9bd 8097 363d
00000030: 6248 38be 5d1b 333c a035 01bc 6eba 32be
00000040: db10 f63d 7b93 993d 6003 3cbe 31de 8d3d
00000050: e3b3 30be 3806 2b3e 6588 8ebd 376e 4d3d

module.blocks.0.norm2.weight f4 [24]
1.0032691 0.965603 0.960947 1.0101845 0.9966437 1.018015 0.9820658 1.1293287
1.0180812 0.9782307 1.0135607 0.99428827 1.0272924 0.9948344 0.94992155 1.0191053
1.0112801 1.0047139 1.0083537 1.0344307 1.0160397 1.0084516 1.0013955 1.0143222
00000000: 1f6b 803f c231 773f 9f00 763f ba4d 813f
00000010: 0b24 7f3f 514e 823f aa68 7b3f d88d 903f
00000020: 7c50 823f 546d 7a3f 5bbc 813f ad89 7e3f
00000030: 517e 833f 78ad 7e3f 0f2e 733f 0b72 823f
00000040: a071 813f 779a 803f bc11 813f 3a68 843f
00000050: 970d 823f f114 813f ba2d 803f 4fd5 813f

module.blocks.0.norm2.bias f4 [24]
-0.006419314 0.030000454 -0.019913733 0.0011965053 -0.0036302404 -0.0058189956 -0.016259734 0.031683713
0.010347246 -0.005561943 -0.012636997 -0.029022535 -0.013127778 -0.010706252 -0.033076536 0.020635644
-0.00934334 -0.00032773768 -0.025640294 -0.017554715 0.01309994 -0.01946497 0.0016229134 -0.019156242
00000000: 1c59 d2bb 83c3 f53c 2022 a3bc 0ed4 9c3a
00000010: 54e9 6dbb 46ad bebb 2233 85bc c8c6 013d
00000020: 7f87 293c f640 b6bb 680b 4fbc abc0 edbc
00000030: e415 57bc 4769 2fbc 437b 07bd 150c a93c
00000040: cf14 19bc 35d4 abb9 980b d2bc e8ce 8fbc
00000050: 21a1 563c 0075 9fbc f0b7 d43a 8ded 9cbc

module.blocks.0.mlp.fc1.weight f4 [96, 24]
0.06492829 0.014943217 -0.099359974 -0.075648464 -0.14642845 -0.18536583 0.18171948 -0.17269456
-0.14383842 -0.01359399 0.01552243 0.029746782 -0.027504558 0.1704015 -0.14948145 -0.19099805
0.078951165 0.06773581 -0.093671516 -0.08482983 0.16730842 0.07073515 0.103086285 -0.15211473
-0.118191406 -0.0006081826 -0.14199379 -0.1418508 0.16219264 0.09976845 -0.14806315 -0.09168323
-0.038202766 0.14465956 0.14422578 -0.09340149 -0.21630815 -0.03019298 -0.0015262206 -0.07963943
-0.26088202 0.048818078 -0.12287438 0.2079156 -0.035469137 -0.053284645 -0.14930417 -0.17403021
-0.05324649 -0.07774456 0.1824643 0.12455455 0.16371584 0.09346161 0.15189473 -0.16667889
-0.13787434 -0.15365793 0.06217287 0.16483667 0.16129814 -0.030005883 0.015163689 0.027554112
0.15060751 0.22130473 -0.12208359 -0.23386037 -0.011279862 0.17579105 -0.110240296 -0.16453396
0.12490703 0.16277997 -0.06708246 0.04517058 0.004297526 -0.15617125 0.0060153943 0.05049624
-0.14901727 0.034285024 0.18841358 -0.043275315 0.048067737 -0.011086833 0.035529602 0.059354205
0.13924491 -0.16571593 0.2153661 -0.14844464 -0.12808232 0.17533538 -0.1360519 -0.20036517
-0.10794478 -0.042428643 -0.06124033 0.0059146783 -0.066080555 0.18721564 0.09264036 -0.029768318
0.08145607 -0.0062020323 -0.11103256 0.12499465 0.15248114 -0.011995313 0.09190424 0.16562402
0.018238172 -0.18439168 0.0966107 -0.056090735 0.08067854 0.1313622 0.03505284 0.1826341
-0.05935402 -0.090828724 0.08040803 0.20737232 0.031974632 0.15304641 0.1584128 -0.14865094
0.1687816 -0.17377469 -0.057586484 -0.03161851 0.042772967 0.047269475 -0.055239733 -0.12835833
-0.20248848 -0.113813 0.19027792 0.020003522 -0.15095787 -0.13573945 -0.19187756 -0.0061614797
-0.12829277 0.19874528 -0.10358518 0.004440016 0.11490323 -0.08951212 0.19232701 0.21183558
-0.040572077 0.18620972 0.030389456 0.05041295 -0.13661548 -0.13870972 0.1030816 0.0016385798
0.054050505 -0.16720743 0.06260623 -0.1719406 0.1616733 -0.20250197 -0.1614311 -0.011549573
-0.17403941 -0.13451698 -0.015753092 0.09740836 0.017950017 -0.17098404 0.11946799 0.05780622
0.045705847 -0.096461184 -0.103259504 0.18613286 0.05382078 0.17914046 -0.02223272 0.11708481
-0.028027426 0.18884236 -0.07604408 -0.13404992 -0.1563275 0.18269232 -0.044080023 -0.15903054
0.15068479 -0.07251286 -0.023836134 0.13435519 -0.17811136 -0.17659402 -0.19324061 0.34156525
0.016904833 -0.070890285 0.11891825 0.12258205 -0.095846735 -0.007961839 0.07272718 0.02458118
0.1674492 -0.1347315 0.11825924 -0.011669946 0.093204565 -0.043832205 -0.11422741 -0.033059806
0.20772265 0.17393918 -0.011008158 -0.18722661 0.14116056 0.1932593 0.080020025 0.020046119
0.15308933 -0.16525112 0.0033370187 -0.083814755 0.12577763 0.0070491424 -0.15434207 -0.08708018
0.1779002 -0.18196459 0.20876524 -0.104866765 0.10612286 -0.15309775 0.01450941 -0.2112206
-0.06431454 -0.030194983 0.08476597 -0.109333105 -0.18297736 0.05660974 -0.09461401 -0.1660271
0.12704878 0.19011606 0.068078026 0.19201973 0.0032394102 0.21257013 0.08951204 0.010213349
00000000: 20f9 843d 65d4 743c 3e7d cbbd 95ed 9abd
00000010: 57f1 15be 8ad0 3dbe ac14 3a3e d8d6 30be
00000020: 614a 13be 54b9 5ebc ca51 7e3c 86af f33c
00000030: 3d51 e1bc bb7d 2e3e aa11 19be fe94 43be
00000040: 26b1 a13d 13b9 8a3d dad6 bfbd 43bb adbd
00000050: e652 2b3e 97dd 903d e71e d33d f7c3 1bbe
00000060: 560e f2bd 726e 1fba d266 11be 5641 11be
00000070: d415 263e 6753 cc3d de9d 17be 6bc4 bbbd
00000080: 817a 1cbd a321 143e ecaf 133e 4849 bfbd
00000090: e27f 5dbe 4557 f7bc 770b c8ba ff19 a3bd
000000a0: 5492 85be 77f5 473d 90a5 fbbd d4e7 543e
000000b0: 1648 11bd 0041 5abd 31e3 18be fa34 32be
000000c0: fe18 5abd 8a38 9fbd ecd7 3a3e 7516 ff3d
000000d0: 20a5 273e cd68 bf3d 4b8a 1b3e dfad 2abe
000000e0: ee2e 0dbe 8158 1dbe fba8 7e3d f2ca 283e
000000f0: 572b 253e e6ce f5bc 1f71 783c 29b9 e13c
00000100: db38 1a3e b59d 623e f606 fabd 1879 6fbe
00000110: 2ccf 38bc 9202 343e aac5 e1bd 977b 28be
00000120: 42cf ff3d cbaf 263e 8762 89bd c904 393d
00000130: 43d2 8c3b 5beb 1fbe c91c c53b 25d5 4e3d
00000140: fc97 18be 746e 0c3d 7def 403e 7541 31bd
00000150: ade2 443d 8ca5 35bc 7d87 113d 651d 733d
00000160: 3896 0e3e 70b1 29be ee88 5c3e df01 18be
00000170: 0328 03be 1e8b 333e 3051 0bbe 872c 4dbe
00000180: 2712 ddbd a8c9 2dbd 24d7 7abd ebcf c13b
00000190: 3e55 87bd 75b5 3f3e 3bba bd3d b0dc f3bc
000001a0: 71d2 a63d 6b3a cbbb 0a65 e3bd 32fd ff3d
000001b0: 0424 1c3e fd87 44bc 4a38 bc3d 5899 293e
000001c0: 3868 953c 2cd1 3cbe d5db c53d 66bf 65bd
000001d0: ca3a a53d d083 063e 9193 0f3d 6f04 3b3e
000001e0: 331d 73bd 6904 babd f7ac a43d 6959 543e
000001f0: d5f7 023d 33b8 1c3e f736 223e f437 18be
00000200: 15d5 2c3e fef1 31be cedf 6bbd 6982 01bd
00000210: b532 2f3d a39d 413d 0f43 62bd 5e70 03be
00000220: 2459 4fbe ca16 e9bd 37d8 423e 6dde a33c
00000230: b394 1abe 48ff 0abe 8d7b 44be 3de6 c9bb
00000240: 2e5f 03be e283 4b3e 7824 d4bd 8e7d 913b
00000250: 6252 eb3d 2152 b7bd 5ff1 443e 6deb 583e
00000260: e82e 26bd c3ad 3e3e 4ff3 f83c cf7d 4e3d
00000270: eee4 0bbe ec09 0ebe 721c d33d 9dc5 d63a
00000280: 1064 5d3d 6d38 2bbe b237 803d 3211 30be
00000290: b08d 253e ad5c 4fbe 324e 25be 6c3a 3dbc
000002a0: 6337 32be d2be 09be a10c 81bc 097e c73d
000002b0: ea0b 933c 7116 2fbe a2ab f43d 37c6 6c3d
000002c0: 0e36 3b3d 718d c5bd b879 d3bd 9d99 3e3e
000002d0: 2e73 5c3d 9970 373e 6521 b6bc 29ca ef3d
000002e0: c699 e5bc e45f 413e 00bd 9bbd 6244 09be
000002f0: 5114 20be b213 3b3e 418d 34bd e7d8 22be
00000300: 1d4d 1a3e 9f81 94bd ff43 c3bc 6894 093e
00000310: d362 36be 10d5 34be dee0 45be a4e1 ae3e
00000320: 017c 8a3c ed2e 91bd 698b f33d 4c0c fb3d
00000330: 4b4b c4bd 6072 02bc fdf1 943d 795e c93c
00000340: ce77 2b3e 0ef7 09be e731 f23d 4d33 3fbc
00000350: 09e2 be3d 6689 33bd 0ff0 e9bd b869 07bd
00000360: 3fb5 543e 1d1d 323e 905b 34bc 55b8 3fbe
00000370: 658c 103e c4e5 453e 8ae1 a33d c237 a43c
00000380: 73c3 1c3e 9737 29be e2b1 5a3b 12a7 abbd
00000390: dacb 003e 7efc e63b d90b 1ebe 1857 b2bd
000003a0: 782b 363e ed54 3abe 8ec6 553e 63c4 d6bd
000003b0: f156 d93d a8c5 1cbe e0b8 6d3c 374a 58be
000003c0: 57b7 83bd 785b f7bc c899 ad3d 09ea dfbd
000003d0: 6b5e 3bbe 9ddf 673d fdc4 c1bd 0203 2abe
000003e0: 1319 023e c9ad 423e 7e6c 8b3d d2a0 443e
000003f0: 494c 543b fcab 593e 1752 b73d e455 273c

module.blocks.0.mlp.fc1.bias f4 [96]
0.15997797 0.07247466 0.06562891 0.016936405 0.11896602 0.16118371 -0.08327007 -0.12973797
-0.19653362 0.110404834 0.019368596 -0.07003096 -0.09674959 0.038580287 -0.13331376 0.118412584
0.062504016 -0.084984094 0.17348191 -0.12535253 -0.17510965 -0.0017337747 -0.034759074 -0.011086388
-0.009608838 0.06285077 0.139076 0.16241322 0.030910928 -0.14100987 -0.21541874 -0.15090857
-0.12746641 -0.09909925 0.14669918 -0.22207938 0.19699447 0.17474167 0.14488311 -0.20652846
0.07199272 0.16871099 -0.11869098 0.03367803 -0.09555243 0.15557803 -0.02241033 -0.11276622
-0.114923924 -0.17392609 -0.18358213 0.0076889866 0.1419439 0.08395263 0.008044126 0.17798777
-0.19330436 0.044714678 0.1925744 0.13189992 -0.1153049 0.0247746 -0.20068116 -0.17658918
-0.008004759 -0.22472575 0.15648375 -0.18531324 -0.09770599 0.16985275 0.05395468 0.16823594
0.0774723 -0.086416185 -0.124308094 -0.017558718 0.1308423 0.12845032 -0.031357344 0.17146003
0.16046241 -0.15145524 0.1469916 -0.080672525 0.025827795 -0.076354064 0.09325805 0.01583351
0.050912824 0.087372534 0.053655654 -0.12385269 -0.16757892 0.021758854 0.14534657 -0.1551584
00000000: 44d1 233e 986d 943d 7368 863d 37be 8a3c
00000010: 75a4 f33d 580d 253e 8089 aabd 08da 04be
00000020: 1c40 49be ee1b e23d e4aa 9e3c 646c 8fbd
00000030: a624 c6bd 5d06 1e3d 6783 08be 4c82 f23d
00000040: 1b02 803d 240c aebd 3ea5 313e 6a5c 00be
00000050: f24f 33be d33f e3ba 885f 0ebd aea3 35bc
00000060: 636e 1dbc e8b7 803d f069 0e3e a74f 263e
00000070: ea38 fd3c e464 10be bb96 5cbe c787 1abe
00000080: 8e86 02be 8cf4 cabd 4f38 163e c768 63be
00000090: ebb8 493e 7bef 323e 3d5c 143e 327c 53be
000000a0: eb70 933d 93c2 2c3e 4214 f3bd f9f1 093d
000000b0: feb0 c3bd d94f 1f3e de95 b7bc faf1 e6bd
000000c0: 3c5d ebbd ae19 32be f4fc 3bbe e5f3 fb3b
000000d0: be59 113e 5bef ab3d 83cb 033c 6d42 363e
000000e0: 94f1 45be bd26 373d 3932 453e c610 073e
000000f0: fa24 ecbd 1af4 ca3c 5d7f 4dbe cbd3 34be
00000100: 6526 03bc 821e 66be 473d 203e c1c2 3dbe
00000110: 141a c8bd e1ed 2d3e 95ff 5c3d 0b46 2c3e
00000120: cca9 9e3d f8fa b0bd 3e95 febd 4dd7 8fbc
00000130: 86fb 053e 7b88 033e 8f70 00bd 3893 2f3e
00000140: 4250 243e 1517 1bbe f784 163e a337 a5bd
00000150: d094 d33c 855f 9cbd 14fe be3d 47b5 813c
00000160: f789 503d 5ff0 b23d 08c6 5b3d 7ba6 fdbd
00000170: cf99 2bbe a03f b23c bbd5 143e d8e1 1ebe

module.blocks.0.mlp.fc2.weight f4 [24, 96]
-0.029975373 -0.10724049 0.033064608 -0.020659551 -0.031939343 0.09052843 -0.06380846 -0.078385346
0.08284116 0.030689398 0.027096925 -0.07476214 -0.040196627 0.083420925 -0.014866615 0.021584343
-0.09508729 -0.014853272 0.060063984 0.0011761553 -0.11055907 -0.09816792 0.0090756565 -0.037043676
0.08885528 0.017440261 0.09060576 -0.10570507 0.08980473 -0.0046400116 0.071871065 -0.04830309
0.05823086 -0.020034233 -0.08833357 -0.05611611 0.079750985 0.09900394 -0.047337253 0.011600816
-0.025651928 0.06659662 -0.0012348783 -0.03417862 -0.036378402 -0.089877084 -0.039037146 -0.0031747515
0.10454788 0.03756296 0.037004694 -0.073351316 0.050756637 -0.06999557 -0.040408153 4.8327576e-05
0.05062635 -0.09395478 -0.041770916 0.10092942 -0.031780805 -0.084907904 -0.075338244 0.038847614
0.058912836 -0.03448935 -0.073674165 -0.031055009 -0.05095078 0.02030026 0.092296295 -0.053597026
-0.07780326 -0.028886259 0.005710911 -0.008364313 0.052055556 0.060661774 -0.014508943 -0.015136214
0.08678043 -0.043564305 -0.015971707 -0.033406742 -0.085854426 -0.10103346 0.079992086 -0.011710336
0.107122116 0.07803192 -0.0137242535 -0.010231846 -0.046985164 -0.029739162 0.1393688 -0.040956605
0.013812032 -0.014769394 -0.05579761 0.03937488 0.075282864 0.07498997 -0.025503378 0.037156966
-0.077847846 -0.04370112 -0.06891596 -0.08259224 0.07149262 -0.048015933 -0.04185523 -0.029225089
-0.00075180863 0.07754503 0.049109075 -0.07219897 -0.10055725 -0.077142194 0.022997495 0.08937576
-0.009662587 0.0068714884 0.08582554 0.015647247 -0.01213834 0.08801102 -0.06858322 -0.021350132
0.06985056 -0.049660727 -0.08629098 -0.045223027 -0.07362381 0.053963337 0.09921712 0.066252716
0.0901842 -0.042114187 -0.0739162 0.022756971 -0.07524315 -0.055015784 0.0326546 0.0064359265
-0.046808198 0.057709605 0.037187938 0.07092726 0.0029818355 0.08877729 -0.051218025 -0.10402764
0.10466977 0.08172063 0.099478714 -0.08233377 0.0455572 -0.096667506 0.010026909 0.09659111
-0.04158212 0.08934211 -0.0060159652 -0.012456949 0.0201606 -0.027966132 0.10393195 -0.07739571
-0.046307337 0.051730875 -0.012871119 -0.050001312 -0.0620024 -0.04231111 -0.033435475 0.08028796
0.026295941 0.062072027 0.01017188 0.0053613526 -0.016802765 -0.05962017 0.05430823 -0.05938207
0.051719572 0.09012997 -0.07277783 -0.038783375 -0.028762413 0.111356236 0.065839805 -0.051617354
0.063113235 0.027896788 -0.018344432 0.061232656 -0.027135644 -0.01957501 0.0507456 -0.004861057
-0.091476366 -0.06751086 0.09332918 0.0355806 -0.020488689 -0.07796839 0.039794084 0.042889915
0.07022962 0.022815129 0.013958559 -0.08490849 -0.022062952 -0.05767162 -0.101836756 -0.049870178
0.05117988 -0.043784313 0.091706365 0.09799487 0.05304332 0.08513237 0.06478293 0.10155931
-0.08853734 0.08399497 0.09482957 0.059907604 -0.06417689 -0.038776986 0.080194436 0.028007315
-0.058976736 -0.040728226 -0.071182765 0.060303297 -0.047653064 -0.08189336 0.08804277 0.08376666
0.031625282 -0.040041517 -0.102270894 0.0085736895 -0.048820414 0.05769005 0.07318486 -0.07559008
0.06900654 0.04546772 0.018550953 -0.041663405 0.01828053 -0.08581037 -0.08951424 -0.025245775
00000000: ea8e f5bc e7a0 dbbd c16e 073d 383e a9bc
00000010: d4d2 02bd f866 b93d 03ae 82bd 7f88 a0bd
00000020: a0a8 a93d 5568 fb3c 5ffa dd3c e51c 99bd
00000030: 38a5 24bd 97d8 aa3d 1a93 73bc a6d1 b03c
00000040: 20bd c2bd 235b 73bc a705 763d 3929 9a3a
00000050: cb6c e2bd 430c c9bd 10b2 143c 1cbb 17bd
00000060: c2f9 b53d e1de 8e3c 838f b93d e67b d8bd
00000070: 8beb b73d 3d0b 98bb 2331 933d 76d9 45bd
00000080: 7b83 6e3d d51e a4bc 3be8 b4bd 02da 65bd
00000090: 7c54 a33d 94c2 ca3d b5e4 41bd 5911 3e3c
000000a0: fe23 d2bc cf63 883d a4db a1ba e1fe 0bbd
000000b0: 8501 15bd 7a11 b8bd 6ae5 1fbd 7e0f 50bb
000000c0: 331d d63d 9edb 193d 3c92 173d 3739 96bd
000000d0: 31e6 4f3d d659 8fbd 0583 25bd 57b3 4a38
000000e0: 935d 4f3d 5d6b c0bd fb17 2bbd 15b4 ce3d
000000f0: 972c 02bd 32e4 adbd f04a 9abd ad1e 1f3d
00000100: 964e 713d b444 0dbd 7be2 96bd 1367 febc
00000110: c4b1 50bd bb4c a63c d705 bd3d 8e88 5bbd
00000120: 5157 9fbd e0a2 ecbc 9822 bb3b 790a 09bc
00000130: 3538 553d 7b78 783d ebb6 6dbc e2fd 77bc
00000140: f0b9 b13d 7c70 32bd 19d7 82bc 82d5 08bd
00000150: 72d4 afbd a1ea cebd e4d2 a33d b6dc 3fbc
00000160: d762 db3d 33cf 9f3d b1db 60bc 79a3 27bc
00000170: 8473 40bd 8b9f f3bc b2b6 0e3e 1dc2 27bd
00000180: dc4b 623c 54fb 71bc 098c 64bd 8e47 213d
00000190: e72d 9a3d 5794 993d 76ec d0bc e731 183d
000001a0: b16e 9fbd f2ff 32bd d023 8dbd 1f26 a9bd
000001b0: b96a 923d 5bac 44bd 6470 2bbd 7469 efbc
000001c0: 0615 45ba eecf 9e3d 9926 493d 0edd 93bd
000001d0: f6f0 cdbd bafc 9dbd 3e65 bc3c a30a b73d
000001e0: d44f 1ebc 392a e13b 4dc5 af3d a82e 803c
000001f0: e3df 46bc 1f3f b43d 5c75 8cbd 79e6 aebc
00000200: cf0d 8f3d 0c69 4bbd 53b9 b0bd c83b 39bd
00000210: 15c8 96bd a908 5d3d 5832 cb3d 81af 873d
00000220: 7eb2 b83d ed7f 2cbd 6061 97bd d46c ba3c
00000230: 1519 9abd 3b58 61bd d4c0 053d 77e4 d23b
00000240: f4b9 3fbd e860 6c3d 6152 183d 5042 913d
00000250: e66a 433b ded0 b53d fec9 51bd 710c d5bd
00000260: 1b5d d63d 255d a73d 7fbb cb3d 9c9e a8bd
00000270: 309a 3a3d 9df9 c5bd e847 243c 8fd1 c53d
00000280: 0352 2abd fff8 b63d 9321 c5bb 3b18 4cbc
00000290: d827 a53c 3b19 e5bc 46da d43d a481 9ebd
000002a0: c3ac 3dbd c1e3 533d 63e1 52bc 2dce 4cbd
000002b0: 3bf6 7dbd 6a4e 2dbd a3f3 08bd 046e a43d
000002c0: 966a d73c 3d3f 7e3d f5a7 263c 49ae af3b
000002d0: f4a5 89bc 4834 74bd 4e72 5e3d 9d3a 73bd
000002e0: e7d7 533d 1096 b83d 8b0c 95bd 51db 1ebd
000002f0: 279f ebbc bd0e e43d 05d7 863d b86c 53bd
00000300: 8341 813d ce87 e43c 1047 96bc 18cf 7a3d
00000310: 924b debc c55b a0bc 9eda 4f3d 8049 9fbb
00000320: f657 bbbd 2243 8abd 5e23 bf3d f7bc 113d
00000330: e5d7 a7bc e4ad 9fbd 1fff 223d 56ad 2f3d
00000340: 8cd4 8f3d cbe6 ba3c 71b2 643c 81e4 adbd
00000350: 5dbd b4bc 1439 6cbd ca8f d0bd ac44 4cbd
00000360: fea1 513d 2e57 33bd 8cd0 bb3d 89b1 c83d
00000370: f443 593d e159 ae3d eaac 843d 54fe cf3d
00000380: 1153 b5bd 8e05 ac3d 0136 c23d ad61 753d
00000390: 2c6f 83bd 9ed4 1ebd fb3c a43d 996f e53c
000003a0: 9791 71bd a4d2 26bd 45c8 91bd 9700 773d
000003b0: dc2f 43bd b5b7 a7bd c54f b43d db8d ab3d
000003c0: 8389 013d 9302 24bd 6773 d1bd a978 0c3c
000003d0: eaf7 47bd 674c 6c3d f2e1 953d f9ce 9abd
000003e0: 4d53 8d3d 5c3c 3a3d 2bf8 973c 3fa7 2abd
000003f0: 0dc1 953c 59bd afbd 3e53 b7bd 3ad0 cebc

module.blocks.0.mlp.fc2.bias f4 [24]
-0.035531335 -0.031137431 0.005326427 -0.03424335 0.06551951 -0.09628581 -0.07053001 0.095748596
0.025989804 0.043088518 -0.074425384 -0.016718121 0.043252546 -0.01735418 0.037698764 -0.08418994
-0.026917432 -0.050321467 0.038458526 -0.04269253 0.082820855 0.05436618 -0.061919857 -0.05859516
00000000: 4e89 11bd ed13 ffbc 4f89 ae3b c142 0cbd
00000010: 182f 863d 7f31 c5bd 0a72 90bd d717 c43d
00000020: 92e8 d43c 967d 303d 566c 98bd 71f4 88bc
00000030: 9529 313d 5a2a 8ebc 056a 1a3d c66b acbd
00000040: f281 dcbc e21d 4ebd b086 1d3d 5dde 2ebd
00000050: fb9d a93d 12af 5e3d ad9f 7dbd 7a01 70bd

module.blocks.1.norm1.weight f4 [24]
0.9991332 0.9995514 1.0057944 1.0308605 1.0180315 1.0169419 0.9814966 1.0364301
0.99035853 0.9849676 0.98685795 1.000559 1.0527923 1.012676 0.98716706 0.9883179
0.95754135 1.0041468 0.9920401 1.0249747 1.0008926 0.9791914 1.0251831 1.0237314
00000000: 32c7 7f3f 9ae2 7f3f dfbd 803f 3df3 833f
00000010: db4e 823f 272b 823f 5c43 7b3f bea9 843f
00000020: 2388 7d3f d626 7c3f b9a2 7c3f 5112 803f
00000030: e6c1 863f 5e9f 813f fbb6 7c3f 6702 7d3f
00000040: 6e21 753f e287 803f 57f6 7d3f 5f32 833f
00000050: 401d 803f 4aac 7a3f 3339 833f a109 833f

module.blocks.1.norm1.bias f4 [24]
0.010865888 0.02008704 0.013752839 0.008743504 -0.013817765 -0.012917726 -0.014544722 -0.015390226
-0.00958281 -0.017324528 0.010384596 0.018463185 0.014724084 0.026393784 0.0024267924 0.013591233
-0.025560355 -0.019278424 0.015720846 -0.010265284 0.0127187325 -0.020222133 -0.011397012 -0.012937765
00000000: d606 323c 938d a43c 9653 613c ea40 0f3c
00000010: e863 62bc dfa4 53bc fc4c 6ebc 4927 7cbc
00000020: 3801 1dbc 2bec 8dbc 2724 2a3c 1b40 973c
00000030: 493d 713c c737 d83c d20a 1f3b c3ad 5e3c
00000040: f363 d1bc c9ed 9dbc 01c9 803c b92f 28bc
00000050: 3b62 503c e3a8 a5bc 88ba 3abc ebf8 53bc

module.blocks.1.attn.qkv.weight f4 [72, 24]
0.055337034 0.17691302 -0.08118572 0.26185986 0.058335476 -0.2380392 0.09944668 -0.086375296
0.0046177884 0.08630128 0.031611003 0.21847051 0.108978786 0.22797763 0.20919009 0.13800392
0.04436876 -0.20024541 0.12546249 0.14973098 -0.045839436 0.044292737 -0.17215736 0.19835185
0.05707716 0.092083596 0.058665156 0.19929172 0.12144149 -0.09074618 0.0800004 0.14887986
0.06736196 0.0539573 -0.121533364 -0.14550932 -0.1320023 0.17787516 0.0624912 -0.143015
0.029240271 0.16435097 0.0778611 0.006390696 -0.07970045 -0.07576198 -0.05716482 -0.09875703
-0.058170594 -0.079763934 -0.018609818 0.07275151 -0.12203446 -0.16647701 0.031010432 0.04788055
0.088893756 0.05899196 -0.117847644 0.020341083 0.014572865 -0.15900324 -0.1741573 -0.22597152
-0.19440594 -0.002834789 -0.051142696 0.23249078 0.18403421 0.08730727 -0.0489928 0.10070711
0.082937635 -0.051686846 -0.08329593 -0.0031743678 0.03976485 0.144484 0.008855649 0.19104418
0.11824278 -0.058941852 -0.008148514 0.19512399 0.02345789 -0.006839964 -0.08137641 -0.005474728
0.15793097 -0.051759828 -0.003392088 0.1863629 -0.24853341 -0.17779705 -0.0389314 0.117452234
-0.1464875 -0.13806893 0.15706015 0.08274559 -0.117692575 -0.16604266 -0.014078888 0.2324836
0.083290555 -0.0148121435 -0.14260046 0.16848616 0.18936566 -0.105211884 -0.16292292 -0.09270868
0.17220476 -0.034952555 -0.059126597 0.085638255 0.01200154 -0.029162416 -0.14159907 -0.048159204
-0.0012538844 0.026424212 -0.044846606 0.013674085 0.078558184 -0.14711195 0.031103728 0.055027246
0.16098152 -0.117387585 0.08685512 -0.00014346048 -0.026954928 -0.049536742 0.077857286 0.019186867
0.18874465 -0.16981205 -0.0013442186 -0.027268684 0.10364942 0.06226397 -0.12529989 -0.25956297
-0.17034331 0.00905172 0.048511118 0.05968211 0.122066855 0.1326498 0.046239175 -0.17664805
-0.167463 -0.1023957 0.19272469 0.07893875 0.01770003 -0.0550355 0.12381827 0.033001024
-0.1523863 -0.005648221 -0.16285725 0.24039164 -0.019382268 0.18632683 0.1986567 -0.100859396
-0.09440905 -0.1615647 -0.23826812 0.055517968 -0.024920609 0.16438481 0.10652129 -0.13893656
-0.19604288 -0.2556485 -0.047765363 0.03275786 -0.010613983 -0.16552173 -0.046349388 -0.06264535
-0.032406263 0.10823995 -0.1032734 0.1532611 -0.16868286 0.01730808 0.084433034 -0.22925112
-0.26434892 -0.14655225 -0.08059284 -0.062044203 0.13979506 0.21700738 0.19310074 0.26137653
-0.2401681 0.057883967 -0.110088825 -0.19911696 0.010925912 -0.0044669383 0.14419892 0.12654567
-0.14799798 0.16255501 -0.20209399 -0.11499608 -0.062455855 -0.1779725 0.09841666 0.08946208
-0.15801512 0.22341736 0.18320978 -0.03478632 -0.0821145 0.023047645 0.04584341 -0.10386314
-0.104827024 -0.050675016 0.17938602 0.0886598 -0.15127124 0.16257219 -0.09381012 0.11120378
-0.18329819 -0.064259656 -0.1273572 -0.17509894 0.19201395 -0.03183078 -0.0362037 0.021559972
-0.20519798 -0.030537138 -0.10052428 -0.045418523 0.17279734 0.10558755 0.02526981 0.25489622
-0.15239094 -0.044016283 -0.095691904 0.049863193 -0.2569065 -0.04534905 -0.2165383 0.23755142
00000000: 16a9 623d b028 353e b344 a6bd 7f12 863e
00000010: 2ef1 6e3d 8cc0 73be b3aa cb3d 88e5 b0bd
00000020: d150 973b babe b03d 8a7a 013d bcb6 5f3e
00000030: 4530 df3d f872 693e ed35 563e e650 0d3e
00000040: 04bc 353d 220d 4dbe 3d79 003e 1453 193e
00000050: 22c2 3bbd 4d6c 353d 054a 30be bf1c 4b3e
00000060: bdc9 693d 5396 bc3d e04a 703d 2113 4c3e
00000070: 51b6 f83d 22d9 b9bd 40d7 a33d f673 183e
00000080: 11f5 893d 5402 5d3d 7ce6 f8bd 6500 15be
00000090: 9c2b 07be e824 363e c6f6 7f3d 8672 12be
000000a0: 4b89 ef3c 9f4b 283e a475 9f3d 0b69 d13b
000000b0: fd39 a3bd 1929 9bbd a925 6abd 2041 cabd
000000c0: 4a44 6ebd 465b a3bd 9e73 98bc befe 943d
000000d0: 34ed f9bd f378 2abe 9709 fe3c 651e 443d
000000e0: ee0d b63d 8ea1 713d 1b5a f1bd 58a2 a63c
000000f0: 07c3 6e3c bfd1 22be 4b56 32be 1465 67be
00000100: 5a12 47be dec7 39bb 017b 51bd 1012 6e3e
00000110: 7773 3c3e 27ce b23d adac 48bd 873f ce3d
00000120: 35db a93d 96b5 53bd 0e97 aabd 0e09 50bb
00000130: 78e0 223d 9df3 133e 4917 113c 16a1 433e
00000140: 4529 f23d 036d 71bd 5881 05bc 95ce 473e
00000150: c32a c03c c721 e0bb ada8 a6bd 5965 b3bb
00000160: a8b8 213e 1d02 54bd cb4d 5ebb ebd5 3e3e
00000170: 8b7f 7ebe 6e10 36be 8876 1fbd cc8a f03d
00000180: d200 16be f161 0dbe 60d4 203e 8576 a93d
00000190: ce08 f1bd 1607 2abe 23ab 66bc 2e10 6e3e
000001a0: 3d94 aa3d a2ae 72bc db05 12be a387 2c3e
000001b0: 12e9 413e 5479 d7bd 44d5 26be 0cde bdbd
000001c0: 7256 303e 692a 0fbd bb2e 72bd 1c63 af3d
000001d0: 1ba2 443c 05e6 eebc 59ff 10be 9642 45bd
000001e0: 6159 a4ba 9777 d83c 13b1 37bd 4509 603c
000001f0: 1de3 a03d 84a4 16be 3fcd fe3c 4064 613d
00000200: 57d8 243e e768 f0bd 19e1 b13d e16d 16b9
00000210: 95d0 dcbc 0ae7 4abd a473 9f3d c72d 9d3c
00000220: 4746 413e 36e3 2dbe 7e30 b0ba 9362 dfbc
00000230: 2646 d43d 8108 7f3d 9d4e 00be 70e5 84be
00000240: 7a6e 2ebe aa4d 143c 98b3 463d 3a75 743d
00000250: 30fe f93d 59d5 073e 4a65 3d3d 3ae3 34be
00000260: 6c7b 2bbe d6b4 d1bd 9f59 453e a4aa a13d
00000270: a7ff 903c e86c 61bd 6f94 fd3d 152c 073d
00000280: 270b 1cbe b614 b9bb 0dc4 26be 3a29 763e
00000290: 90c7 9ebc 76cc 3e3e a96c 4b3e 5f8f cebd
000002a0: 8859 c1bd 3771 25be 8ffc 73be cf66 633d
000002b0: 4e26 ccbc 7e54 283e d627 da3d 6345 0ebe
000002c0: 77bf 48be 5ce4 82be 9da5 43bd 1b2d 063d
000002d0: 45e6 2dbc 877e 29be dbd8 3dbd 354c 80bd
000002e0: 6ebc 04bd e8ac dd3d 0181 d3bd 7af0 1c3e
000002f0: 33bb 2cbe adc9 8d3c 3aeb ac3d cec0 6abe
00000300: be58 87be cb11 16be dc0d a5bd 1022 7ebd
00000310: 7026 0f3e 2f37 5e3e 33bc 453e 25d3 853e
00000320: a0ee 75be bd17 6d3d 4076 e1bd 51e5 4bbe
00000330: 9902 333c 655f 92bb e2a8 133e 3095 013e
00000340: c88c 17be d274 263e baf1 4ebe 1183 ebbd
00000350: b6d1 7fbd 6c3e 36be ad8e c93d e537 b73d
00000360: b7ce 21be 85c7 643e 589b 3b3e 1a7c 0ebd
00000370: a62b a8bd 6ace bc3c 4dc6 3b3d 33b6 d4bd
00000380: 8daf d6bd 9b90 4fbd f8b0 373e 4593 b53d
00000390: d9e6 1abe 5379 263e 851f c0bd cfbe e33d
000003a0: 85b2 3bbe 919a 83bd ed69 02be 234d 33be
000003b0: 4e9f 443e fe60 02bd 554a 14bd 8a9e b03c
000003c0: 6b1f 52be 0529 fabc acdf cdbd c608 3abd
000003d0: c9f1 303e 493e d83d a202 cf3c c281 823e
000003e0: 5f0c 1cbe 6b4a 34bd 1efa c3bd 593d 4c3d
000003f0: 4089 83be edbf 39bd 37bc 5dbe ae40 733e
